…
        "train_loader = torch.utils.data.DataLoader(train_dataset, batch_size=8, shuffle=True)\n",
        "valid_loader = torch.utils.data.DataLoader(valid_dataset, batch_size=8, shuffle=True) "
      ]
    },
    {
      "cell_type": "code",
      "execution_count": 24,
      "metadata": {
        "colab": {
          "base_uri": "https://localhost:8080/"
        },
        "id": "k9XvKMxg3Erz",
        "outputId": "959cd0d3-3976-4b21-ab8d-893d52171114"
      },
      "outputs": [
        {
          "name": "stdout",
          "output_type": "stream",
          "text": [
            "VGG(\n",
            "  (features): Sequential(\n",
            "    (0): Conv2d(3, 64, kernel_size=(3, 3), stride=(1, 1), padding=(1, 1))\n",
            "    (1): ReLU(inplace=True)\n",
            "    (2): Conv2d(64, 64, kernel_size=(3, 3), stride=(1, 1), padding=(1, 1))\n",
            "    (3): ReLU(inplace=True)\n",
            "    (4): MaxPool2d(kernel_size=2, stride=2, padding=0, dilation=1, ceil_mode=False)\n",
            "    (5): Conv2d(64, 128, kernel_size=(3, 3), stride=(1, 1), padding=(1, 1))\n",
            "    (6): ReLU(inplace=True)\n",
            "    (7): Conv2d(128, 128, kernel_size=(3, 3), stride=(1, 1), padding=(1, 1))\n",
            "    (8): ReLU(inplace=True)\n",
            "    (9): MaxPool2d(kernel_size=2, stride=2, padding=0, dilation=1, ceil_mode=False)\n",
            "    (10): Conv2d(128, 256, kernel_size=(3, 3), stride=(1, 1), padding=(1, 1))\n",
            "    (11): ReLU(inplace=True)\n",
            "    (12): Conv2d(256, 256, kernel_size=(3, 3), stride=(1, 1), padding=(1, 1))\n",
            "    (13): ReLU(inplace=True)\n",
            "    (14): Conv2d(256, 256, kernel_size=(3, 3), stride=(1, 1), padding=(1, 1))\n",
            "    (15): ReLU(inplace=True)\n",
            "    (16): MaxPool2d(kernel_size=2, stride=2, padding=0, dilation=1, ceil_mode=False)\n",
            "    (17): Conv2d(256, 512, kernel_size=(3, 3), stride=(1, 1), padding=(1, 1))\n",
            "    (18): ReLU(inplace=True)\n",
            "    (19): Conv2d(512, 512, kernel_size=(3, 3), stride=(1, 1), padding=(1, 1))\n",
            "    (20): ReLU(inplace=True)\n",
            "    (21): Conv2d(512, 512, kernel_size=(3, 3), stride=(1, 1), padding=(1, 1))\n",
            "    (22): ReLU(inplace=True)\n",
            "    (23): MaxPool2d(kernel_size=2, stride=2, padding=0, dilation=1, ceil_mode=False)\n",
            "    (24): Conv2d(512, 512, kernel_size=(3, 3), stride=(1, 1), padding=(1, 1))\n",
            "    (25): ReLU(inplace=True)\n",
            "    (26): Conv2d(512, 512, kernel_size=(3, 3), stride=(1, 1), padding=(1, 1))\n",
            "    (27): ReLU(inplace=True)\n",
            "    (28): Conv2d(512, 512, kernel_size=(3, 3), stride=(1, 1), padding=(1, 1))\n",
            "    (29): ReLU(inplace=True)\n",
            "    (30): MaxPool2d(kernel_size=2, stride=2, padding=0, dilation=1, ceil_mode=False)\n",
            "  )\n",
            "  (avgpool): AdaptiveAvgPool2d(output_size=(7, 7))\n",
            "  (classifier): Sequential(\n",
            "    (fc1): Linear(in_features=25088, out_features=5000, bias=True)\n",
            "    (relu): ReLU()\n",
            "    (drop): Dropout(p=0.5, inplace=False)\n",
            "    (fc2): Linear(in_features=5000, out_features=7, bias=True)\n",
            "    (output): LogSoftmax(dim=1)\n",
            "  )\n",
            ")\n"
          ]
        }
      ],
      "source": [
        "import torchvision.models as models\n",
        "import torch\n",
        "model = models.vgg16()\n",
        "from collections import OrderedDict\n",
        "classifier = torch.nn.Sequential(OrderedDict([('fc1', torch.nn.Linear(25088, 5000)),\n",
…
